…
2022-03-07 21:21:02.442222: I tensorflow/core/common_runtime/gpu/gpu_device.cc:1525] Created device /job:localhost/replica:0/task:0/device:GPU:0 with 13290 MB memory:  -> device: 0, name: Quadro RTX 5000, pci bus id: 0000:01:00.0, compute capability: 7.5
Model: "model"
________________________________________________________________________________
 Layer (type)                       Output Shape                    Param #     
================================================================================
 input_1 (InputLayer)               [(None, 10000)]                 0           
                                                                                
 l1_embedding (Embedding)           (None, 10000, 300)              36782700    
                                                                                
 l1_batch-norm (BatchNormalization)  (None, 10000, 300)             1200        
                                                                                
 l1_dropout (Dropout)               (None, 10000, 300)              0           
                                                                                
 bidirectional_1 (Bidirectional)    (None, 10000, 512)              857088      
                                                                                
 bidirectional (Bidirectional)      (None, 512)                     1182720     
                                                                                
 l2_batch-norm (BatchNormalization)  (None, 512)                    2048        
                                                                                
 l2_dropout (Dropout)               (None, 512)                     0           
                                                                                
 fc_out_1 (Dense)                   (None, 128)                     65664       
                                                                                
 batch_normalization_1 (BatchNormal  (None, 128)                    512         
 ization)                                                                       
                                                                                
 dropout_1 (Dropout)                (None, 128)                     0           
                                                                                
 fc_out_2 (Dense)                   (None, 128)                     16512       
                                                                                
 batch_normalization (BatchNormaliz  (None, 128)                    512         
 ation)                                                                         
                                                                                
 dropout (Dropout)                  (None, 128)                     0           
                                                                                
 out_fc (Dense)                     (None, 1)                       129         
                                                                                
================================================================================
Total params: 38,909,085
Trainable params: 2,124,249
Non-trainable params: 36,784,836
________________________________________________________________________________
Epoch 1/15
2022-03-07 21:21:20.764619: I tensorflow/stream_executor/cuda/cuda_dnn.cc:368] Loaded cuDNN version 8302
…
